shape_recognition_model.pth (torch, 3688 bytes, 6 tensors)

fc1.weight f4 [12, 7]
0	0xbf6a3ba7	-0.9149727
1	0x3ef39c71	0.47580293
2	0x3efce4d5	0.49393335
3	0x3adae37c	0.0016699876
4	0x3f934463	1.1505245
5	0x3de34daa	0.110987976
6	0x3eb27214	0.3485266
7	0x3fa7b35b	1.310161
8	0x3f022a52	0.50845826
9	0x3d857d42	0.06518032
10	0x3edf9973	0.4367176
11	0x3eed00b9	0.46289614
12	0xbdefc405	-0.1170731
13	0x3decef20	0.11569047
14	0x3f4b17a3	0.7933294
15	0xbec15fbb	-0.3776835
16	0xbf2062e5	-0.626509
17	0xbdf09cf6	-0.11748688
18	0xbf71e9be	-0.9449729
19	0x3d61f3c4	0.055164114
20	0xbe783c27	-0.24241696
21	0xbf2257a6	-0.6341499
22	0xbd7a6d1d	-0.061139215
23	0x3f1fe082	0.62451947
24	0xbf809d70	-1.0048046
25	0x3f70d25f	0.94071
26	0x3dc60efd	0.096708275
27	0x3ef35956	0.47529095
28	0x3f246a37	0.6422457
29	0x3f0bf2a5	0.5466712
30	0x3d8667f4	0.06562796
31	0x3f95314d	1.165567
32	0x3f7c9ffc	0.98681617
33	0x3e9327e9	0.28741387
34	0xbe053590	-0.13008714
35	0xbf38e648	-0.7222638
36	0x3f39e2b6	0.7261156
37	0x3e1cf90a	0.15329376
38	0x3f26a66f	0.6509771
39	0xbea5928a	-0.32338363
40	0x3ddc5c42	0.10759784
41	0x3f0680ef	0.5254049
42	0xbf87f64e	-1.0622041
43	0x3eb6d2a1	0.35707572
44	0x3e6a93e4	0.22907978
45	0x3f824ec8	1.0180292
46	0x3ee0c554	0.4390055
47	0x3b44095d	0.0029912808
48	0x3dca78be	0.09886311
49	0xbf3c7d49	-0.7362867
50	0x3eba6ecd	0.3641266
51	0x3db07224	0.086155206
52	0x3f83842d	1.0274712
53	0x3da70ca2	0.081567064
54	0x3cb8cb92	0.022558007
55	0x3ee73c6f	0.45163295
56	0x3f4b0004	0.792969
57	0x3ecd7e83	0.40135583
58	0xbe5fd305	-0.21857841
59	0x3e6cc898	0.23123395
60	0x3f8203dd	1.0157429
61	0x3b8e3034	0.0043392424
62	0x3c614e92	0.013751643
63	0xbfd2f75c	-1.6481738
64	0x3cda389f	0.026638327
65	0x3e7e0b27	0.24808942
66	0xbf6ed2c5	-0.9329036
67	0xbf14aaef	-0.58073324
68	0xbe01bd80	-0.12669945
69	0x3ec991b1	0.39368966
70	0xbccbf487	-0.024896873
71	0xbe52fd2d	-0.20604391
72	0xbe16006c	-0.14648598
73	0xbe91566e	-0.28386253
74	0xbfa9c872	-1.3264296
75	0x3eac0388	0.33596444
76	0xbafcb10a	-0.0019278836
77	0xbf083a08	-0.5321355
78	0xbf3ccb0b	-0.7374732
79	0xbf01b226	-0.5066246
80	0xbf68871c	-0.9083116
81	0xbea4d7c4	-0.32195866
82	0xbe12cd79	-0.14336194
83	0xbf3b3c6f	-0.7313909

fc1.bias f4 [12]
0	0x3f081916	0.5316328
1	0x3f324cdf	0.69648546
2	0x3f9abd7c	1.2089076
3	0xbdd447c2	-0.10365249
4	0x3dc72ce9	0.09725363
5	0x3ed3ce44	0.41368306
6	0x3f3d12d4	0.73856854
7	0x3f04cf26	0.51878583
8	0x3f1477d0	0.5799532
9	0x3f1d44d4	0.6143315
10	0x3f96f5ba	1.179374
11	0xbe330248	-0.17481339

fc2.weight f4 [8, 12]
0	0x3f3b152c	0.7307918
1	0x3e3c9493	0.18416052
2	0xbf989400	-1.1920166
3	0x3f4c2f71	0.7975989
4	0x3f804a7b	1.002273
5	0x3d95c1b1	0.07312334
6	0x3f4e7014	0.8063977
7	0x3e06776a	0.1313149
8	0x3eb7a183	0.3586541
9	0xbdebaaed	-0.11507211
10	0xbf580a33	-0.8439056
11	0x3e7bf9cc	0.24607009
12	0x3e81c4e4	0.25345528
13	0xbf272e70	-0.65305233
14	0x3e9e5e6c	0.30931413
15	0xbd0d9e8c	-0.03457503
16	0xbf83a4a2	-1.0284617
17	0x3f0b3845	0.54382735
18	0x3ee074ab	0.4383901
19	0x3da14b84	0.078757316
20	0xbeffda49	-0.49971226
21	0x3fac378d	1.3454453
22	0x3f3e6ac3	0.74381655
23	0x3f0b7b28	0.54484797
24	0x3eb90583	0.36137018
25	0x3f66118c	0.89870524
26	0x3f0c4d1f	0.5480518
27	0x3f2185a8	0.6309457
28	0x3ef4154c	0.47672498
29	0xbf29e406	-0.6636356
30	0xbe01ee9b	-0.12688677
31	0xbec5a0dc	-0.38599288
32	0x3f4b9277	0.7952036
33	0xbdfa7daa	-0.12231
34	0x3e501544	0.20320612
35	0xbf40a1c4	-0.75246835
36	0x3d40e654	0.047094658
37	0x3e00f0af	0.12591814
38	0x3ed7d253	0.42152652
39	0xbf225ee5	-0.6342605
40	0x3f09fd84	0.5390246
41	0x3f042e92	0.5163356
42	0x3dde7e45	0.10863928
43	0x3edba5c8	0.4289992
44	0x3db4159c	0.08793184
45	0x3e61445e	0.21998736
46	0x3dfa9793	0.12235942
47	0x3f4fa388	0.81108904
48	0x3ea9f4a2	0.33194453
49	0x3ddd8c4f	0.10817777
50	0x3ed538f8	0.41645026
51	0xbf219d2f	-0.6313047
52	0x3ea3a888	0.31964517
53	0x3f752c4d	0.9577072
54	0x3f466675	0.7750009
55	0x3f57b3af	0.8425855
56	0x3d88d449	0.06681115
57	0xbf358919	-0.7091232
58	0x3e5cb7e9	0.21554531
59	0xbf54637d	-0.8296431
60	0xbc1c5436	-0.009541562
61	0x3efb44df	0.49075982
62	0x3e847593	0.25870952
63	0xbf033437	-0.5125155
64	0x3f7d0dde	0.98849285
65	0x3f30387e	0.688362
66	0x3f505718	0.81382895
67	0x3f2ab3f3	0.6668083
68	0x3f0fce27	0.5617394
69	0xbf6f3f63	-0.93456095
70	0x3e643162	0.22284463
71	0xbee5cbce	-0.44882053
72	0x3eda7ca7	0.42673227
73	0xbf31ef95	-0.695062
74	0xbc0f30c5	-0.008739655
75	0xbea97d06	-0.33103198
76	0xbeeddc18	-0.4645698
77	0x3f2a2a56	0.6647085
78	0x3ee07ae2	0.43843752
79	0x3f4f5095	0.80982333
80	0xbf27913c	-0.65455985
81	0x3e3dfdba	0.1855382
82	0x3ec47add	0.38374987
83	0xbf61c63e	-0.8819312
84	0xbf174f2e	-0.59105194
85	0x3f30b503	0.690262
86	0x3f83e52a	1.030431
87	0xbebb99be	-0.36640733
88	0x3f00c8d1	0.5030642
89	0x3d6b1431	0.057392303
90	0xbf6dc0a1	-0.92872053
91	0xbeaaa5bf	-0.3332958
92	0x3eac8c81	0.33700946
93	0x3f094088	0.5361409
94	0x3f4eecbf	0.80829996
95	0x3f2c4745	0.6729625

fc2.bias f4 [8]
0	0xbe914ece	-0.28380436
1	0x3eea7b1c	0.4579705
2	0x3e7331b9	0.23749436
3	0x3ea32c77	0.3186986
4	0x3f0f2329	0.55913025
5	0x3ed82bdf	0.4222097
6	0x3f23351c	0.63752913
7	0x3f494d5c	0.78633666

fc3.weight f4 [5, 8]
0	0x3f4f46e3	0.8096754
1	0x3e951bdb	0.29122815
2	0x3f2b7d3a	0.66987956
3	0xbf5231df	-0.8210735
4	0xbf5a082c	-0.8516872
5	0xbdeb3f99	-0.1148674
6	0xbf130b38	-0.57438993
7	0xbf33b417	-0.7019667
8	0xbf86c83c	-1.0529857
9	0x3f6de34c	0.9292495
10	0xbf7a6cee	-0.97822464
11	0xbdd5eb5d	-0.104452826
12	0x3ee246bd	0.44194594
13	0xbe7a53fe	-0.24446103
14	0x3f85680c	1.0422378
15	0xbef512bf	-0.47865865
16	0xbefbcee2	-0.49181277
17	0x3f61b0ed	0.8816059
18	0xbf8e6a25	-1.1126143
19	0x3ee92d0e	0.45542186
20	0xbfaa2baf	-1.3294581
21	0xbf95ad5a	-1.1693528
22	0xbf506094	-0.81397367
23	0x3f09793c	0.53700614
24	0xbf4342ff	-0.762741
25	0xbf7b132c	-0.9807613
26	0x3f1dfff4	0.6171868
27	0xbc705d42	-0.014670672
28	0x3d4e8ce3	0.05042733
29	0x3d99a3a4	0.07501915
30	0xbf73e51b	-0.9527146
31	0x3f5b5975	0.85683376
32	0x3f3d166b	0.7386233
33	0xbfa00ca3	-1.2503856
34	0xbf153dde	-0.58297527
35	0x3e28e58c	0.16493815
36	0x3edb60ae	0.42847198
37	0x3eeeea42	0.466631
38	0xbecae4c8	-0.3962767
39	0xbfa87a5e	-1.3162344

fc3.bias f4 [5]
0	0x3eb47956	0.35248822
1	0x3f071b90	0.5277643
2	0xbe2d29c2	-0.1691046
3	0x3e880d6b	0.26572737
4	0xbf1a3453	-0.6023609
